{"format": "torch", "nodes": [{"name": "cxrmixer.0", "id": 139676789728304, "class_name": "Linear(in_features=768, out_features=768, bias=True)", "parameters": [], "output_shape": [[86, 326, 768]], "num_parameters": []}, {"name": "cxrmixer.1.0", "id": 139676789728592, "class_name": "PreNormResidual(\n  (fn): Sequential(\n    (0): Conv1d(326, 1304, kernel_size=(1,), stride=(1,))\n    (1): GELU()\n    (2): Dropout(p=0.0, inplace=False)\n    (3): Conv1d(1304, 326, kernel_size=(1,), stride=(1,))\n    (4): Dropout(p=0.0, inplace=False)\n  )\n  (norm): LayerNorm((768,), eps=1e-05, elementwise_affine=True)\n)", "parameters": [], "output_shape": [[86, 326, 768]], "num_parameters": []}, {"name": "cxrmixer.1.1", "id": 139676789729744, "class_name": "PreNormResidual(\n  (fn): Sequential(\n    (0): Linear(in_features=768, out_features=3072, bias=True)\n    (1): GELU()\n    (2): Dropout(p=0.0, inplace=False)\n    (3): Linear(in_features=3072, out_features=768, bias=True)\n    (4): Dropout(p=0.0, inplace=False)\n  )\n  (norm): LayerNorm((768,), eps=1e-05, elementwise_affine=True)\n)", "parameters": [], "output_shape": [[86, 326, 768]], "num_parameters": []}, {"name": "cxrmixer.2.0", "id": 139676789731040, "class_name": "PreNormResidual(\n  (fn): Sequential(\n    (0): Conv1d(326, 1304, kernel_size=(1,), stride=(1,))\n    (1): GELU()\n    (2): Dropout(p=0.0, inplace=False)\n    (3): Conv1d(1304, 326, kernel_size=(1,), stride=(1,))\n    (4): Dropout(p=0.0, inplace=False)\n  )\n  (norm): LayerNorm((768,), eps=1e-05, elementwise_affine=True)\n)", "parameters": [], "output_shape": [[86, 326, 768]], "num_parameters": []}, {"name": "cxrmixer.2.1", "id": 139676789441200, "class_name": "PreNormResidual(\n  (fn): Sequential(\n    (0): Linear(in_features=768, out_features=3072, bias=True)\n    (1): GELU()\n    (2): Dropout(p=0.0, inplace=False)\n    (3): Linear(in_features=3072, out_features=768, bias=True)\n    (4): Dropout(p=0.0, inplace=False)\n  )\n  (norm): LayerNorm((768,), eps=1e-05, elementwise_affine=True)\n)", "parameters": [], "output_shape": [[86, 326, 768]], "num_parameters": []}, {"name": "cxrmixer.3.0", "id": 139676789442496, "class_name": "PreNormResidual(\n  (fn): Sequential(\n    (0): Conv1d(326, 1304, kernel_size=(1,), stride=(1,))\n    (1): GELU()\n    (2): Dropout(p=0.0, inplace=False)\n    (3): Conv1d(1304, 326, kernel_size=(1,), stride=(1,))\n    (4): Dropout(p=0.0, inplace=False)\n  )\n  (norm): LayerNorm((768,), eps=1e-05, elementwise_affine=True)\n)", "parameters": [], "output_shape": [[86, 326, 768]], "num_parameters": []}, {"name": "cxrmixer.3.1", "id": 139676789443648, "class_name": "PreNormResidual(\n  (fn): Sequential(\n    (0): Linear(in_features=768, out_features=3072, bias=True)\n    (1): GELU()\n    (2): Dropout(p=0.0, inplace=False)\n    (3): Linear(in_features=3072, out_features=768, bias=True)\n    (4): Dropout(p=0.0, inplace=False)\n  )\n  (norm): LayerNorm((768,), eps=1e-05, elementwise_affine=True)\n)", "parameters": [], "output_shape": [[86, 326, 768]], "num_parameters": []}, {"name": "cxrmixer.4.0", "id": 139676297232784, "class_name": "PreNormResidual(\n  (fn): Sequential(\n    (0): Conv1d(326, 1304, kernel_size=(1,), stride=(1,))\n    (1): GELU()\n    (2): Dropout(p=0.0, inplace=False)\n    (3): Conv1d(1304, 326, kernel_size=(1,), stride=(1,))\n    (4): Dropout(p=0.0, inplace=False)\n  )\n  (norm): LayerNorm((768,), eps=1e-05, elementwise_affine=True)\n)", "parameters": [], "output_shape": [[86, 326, 768]], "num_parameters": []}, {"name": "cxrmixer.4.1", "id": 139676297233936, "class_name": "PreNormResidual(\n  (fn): Sequential(\n    (0): Linear(in_features=768, out_features=3072, bias=True)\n    (1): GELU()\n    (2): Dropout(p=0.0, inplace=False)\n    (3): Linear(in_features=3072, out_features=768, bias=True)\n    (4): Dropout(p=0.0, inplace=False)\n  )\n  (norm): LayerNorm((768,), eps=1e-05, elementwise_affine=True)\n)", "parameters": [], "output_shape": [[86, 326, 768]], "num_parameters": []}, {"name": "cxrmixer.5.0", "id": 139676297235232, "class_name": "PreNormResidual(\n  (fn): Sequential(\n    (0): Conv1d(326, 1304, kernel_size=(1,), stride=(1,))\n    (1): GELU()\n    (2): Dropout(p=0.0, inplace=False)\n    (3): Conv1d(1304, 326, kernel_size=(1,), stride=(1,))\n    (4): Dropout(p=0.0, inplace=False)\n  )\n  (norm): LayerNorm((768,), eps=1e-05, elementwise_affine=True)\n)", "parameters": [], "output_shape": [[86, 326, 768]], "num_parameters": []}, {"name": "cxrmixer.5.1", "id": 139676297236384, "class_name": "PreNormResidual(\n  (fn): Sequential(\n    (0): Linear(in_features=768, out_features=3072, bias=True)\n    (1): GELU()\n    (2): Dropout(p=0.0, inplace=False)\n    (3): Linear(in_features=3072, out_features=768, bias=True)\n    (4): Dropout(p=0.0, inplace=False)\n  )\n  (norm): LayerNorm((768,), eps=1e-05, elementwise_affine=True)\n)", "parameters": [], "output_shape": [[86, 326, 768]], "num_parameters": []}, {"name": "cxrmixer.6.0", "id": 139676297348336, "class_name": "PreNormResidual(\n  (fn): Sequential(\n    (0): Conv1d(326, 1304, kernel_size=(1,), stride=(1,))\n    (1): GELU()\n    (2): Dropout(p=0.0, inplace=False)\n    (3): Conv1d(1304, 326, kernel_size=(1,), stride=(1,))\n    (4): Dropout(p=0.0, inplace=False)\n  )\n  (norm): LayerNorm((768,), eps=1e-05, elementwise_affine=True)\n)", "parameters": [], "output_shape": [[86, 326, 768]], "num_parameters": []}, {"name": "cxrmixer.6.1", "id": 139676297349488, "class_name": "PreNormResidual(\n  (fn): Sequential(\n    (0): Linear(in_features=768, out_features=3072, bias=True)\n    (1): GELU()\n    (2): Dropout(p=0.0, inplace=False)\n    (3): Linear(in_features=3072, out_features=768, bias=True)\n    (4): Dropout(p=0.0, inplace=False)\n  )\n  (norm): LayerNorm((768,), eps=1e-05, elementwise_affine=True)\n)", "parameters": [], "output_shape": [[86, 326, 768]], "num_parameters": []}, {"name": "cxrmixer.7.0", "id": 139676297350784, "class_name": "PreNormResidual(\n  (fn): Sequential(\n    (0): Conv1d(326, 1304, kernel_size=(1,), stride=(1,))\n    (1): GELU()\n    (2): Dropout(p=0.0, inplace=False)\n    (3): Conv1d(1304, 326, kernel_size=(1,), stride=(1,))\n    (4): Dropout(p=0.0, inplace=False)\n  )\n  (norm): LayerNorm((768,), eps=1e-05, elementwise_affine=True)\n)", "parameters": [], "output_shape": [[86, 326, 768]], "num_parameters": []}, {"name": "cxrmixer.7.1", "id": 139676296942400, "class_name": "PreNormResidual(\n  (fn): Sequential(\n    (0): Linear(in_features=768, out_features=3072, bias=True)\n    (1): GELU()\n    (2): Dropout(p=0.0, inplace=False)\n    (3): Linear(in_features=3072, out_features=768, bias=True)\n    (4): Dropout(p=0.0, inplace=False)\n  )\n  (norm): LayerNorm((768,), eps=1e-05, elementwise_affine=True)\n)", "parameters": [], "output_shape": [[86, 326, 768]], "num_parameters": []}, {"name": "cxrmixer.8.0", "id": 139676296943696, "class_name": "PreNormResidual(\n  (fn): Sequential(\n    (0): Conv1d(326, 1304, kernel_size=(1,), stride=(1,))\n    (1): GELU()\n    (2): Dropout(p=0.0, inplace=False)\n    (3): Conv1d(1304, 326, kernel_size=(1,), stride=(1,))\n    (4): Dropout(p=0.0, inplace=False)\n  )\n  (norm): LayerNorm((768,), eps=1e-05, elementwise_affine=True)\n)", "parameters": [], "output_shape": [[86, 326, 768]], "num_parameters": []}, {"name": "cxrmixer.8.1", "id": 139676296944848, "class_name": "PreNormResidual(\n  (fn): Sequential(\n    (0): Linear(in_features=768, out_features=3072, bias=True)\n    (1): GELU()\n    (2): Dropout(p=0.0, inplace=False)\n    (3): Linear(in_features=3072, out_features=768, bias=True)\n    (4): Dropout(p=0.0, inplace=False)\n  )\n  (norm): LayerNorm((768,), eps=1e-05, elementwise_affine=True)\n)", "parameters": [], "output_shape": [[86, 326, 768]], "num_parameters": []}, {"name": "cxrmixer.9.0", "id": 139676297060896, "class_name": "PreNormResidual(\n  (fn): Sequential(\n    (0): Conv1d(326, 1304, kernel_size=(1,), stride=(1,))\n    (1): GELU()\n    (2): Dropout(p=0.0, inplace=False)\n    (3): Conv1d(1304, 326, kernel_size=(1,), stride=(1,))\n    (4): Dropout(p=0.0, inplace=False)\n  )\n  (norm): LayerNorm((768,), eps=1e-05, elementwise_affine=True)\n)", "parameters": [], "output_shape": [[86, 326, 768]], "num_parameters": []}, {"name": "cxrmixer.9.1", "id": 139676297062048, "class_name": "PreNormResidual(\n  (fn): Sequential(\n    (0): Linear(in_features=768, out_features=3072, bias=True)\n    (1): GELU()\n    (2): Dropout(p=0.0, inplace=False)\n    (3): Linear(in_features=3072, out_features=768, bias=True)\n    (4): Dropout(p=0.0, inplace=False)\n  )\n  (norm): LayerNorm((768,), eps=1e-05, elementwise_affine=True)\n)", "parameters": [], "output_shape": [[86, 326, 768]], "num_parameters": []}, {"name": "cxrmixer.10.0", "id": 139676297063344, "class_name": "PreNormResidual(\n  (fn): Sequential(\n    (0): Conv1d(326, 1304, kernel_size=(1,), stride=(1,))\n    (1): GELU()\n    (2): Dropout(p=0.0, inplace=False)\n    (3): Conv1d(1304, 326, kernel_size=(1,), stride=(1,))\n    (4): Dropout(p=0.0, inplace=False)\n  )\n  (norm): LayerNorm((768,), eps=1e-05, elementwise_affine=True)\n)", "parameters": [], "output_shape": [[86, 326, 768]], "num_parameters": []}, {"name": "cxrmixer.10.1", "id": 139676297179248, "class_name": "PreNormResidual(\n  (fn): Sequential(\n    (0): Linear(in_features=768, out_features=3072, bias=True)\n    (1): GELU()\n    (2): Dropout(p=0.0, inplace=False)\n    (3): Linear(in_features=3072, out_features=768, bias=True)\n    (4): Dropout(p=0.0, inplace=False)\n  )\n  (norm): LayerNorm((768,), eps=1e-05, elementwise_affine=True)\n)", "parameters": [], "output_shape": [[86, 326, 768]], "num_parameters": []}, {"name": "cxrmixer.11.0", "id": 139676297180544, "class_name": "PreNormResidual(\n  (fn): Sequential(\n    (0): Conv1d(326, 1304, kernel_size=(1,), stride=(1,))\n    (1): GELU()\n    (2): Dropout(p=0.0, inplace=False)\n    (3): Conv1d(1304, 326, kernel_size=(1,), stride=(1,))\n    (4): Dropout(p=0.0, inplace=False)\n  )\n  (norm): LayerNorm((768,), eps=1e-05, elementwise_affine=True)\n)", "parameters": [], "output_shape": [[86, 326, 768]], "num_parameters": []}, {"name": "cxrmixer.11.1", "id": 139676297181696, "class_name": "PreNormResidual(\n  (fn): Sequential(\n    (0): Linear(in_features=768, out_features=3072, bias=True)\n    (1): GELU()\n    (2): Dropout(p=0.0, inplace=False)\n    (3): Linear(in_features=3072, out_features=768, bias=True)\n    (4): Dropout(p=0.0, inplace=False)\n  )\n  (norm): LayerNorm((768,), eps=1e-05, elementwise_affine=True)\n)", "parameters": [], "output_shape": [[86, 326, 768]], "num_parameters": []}, {"name": "cxrmixer.12.0", "id": 139676297182992, "class_name": "PreNormResidual(\n  (fn): Sequential(\n    (0): Conv1d(326, 1304, kernel_size=(1,), stride=(1,))\n    (1): GELU()\n    (2): Dropout(p=0.0, inplace=False)\n    (3): Conv1d(1304, 326, kernel_size=(1,), stride=(1,))\n    (4): Dropout(p=0.0, inplace=False)\n  )\n  (norm): LayerNorm((768,), eps=1e-05, elementwise_affine=True)\n)", "parameters": [], "output_shape": [[86, 326, 768]], "num_parameters": []}, {"name": "cxrmixer.12.1", "id": 139676296782800, "class_name": "PreNormResidual(\n  (fn): Sequential(\n    (0): Linear(in_features=768, out_features=3072, bias=True)\n    (1): GELU()\n    (2): Dropout(p=0.0, inplace=False)\n    (3): Linear(in_features=3072, out_features=768, bias=True)\n    (4): Dropout(p=0.0, inplace=False)\n  )\n  (norm): LayerNorm((768,), eps=1e-05, elementwise_affine=True)\n)", "parameters": [], "output_shape": [[86, 326, 768]], "num_parameters": []}, {"name": "cxrmixer.13", "id": 139676296783952, "class_name": "LayerNorm((768,), eps=1e-05, elementwise_affine=True)", "parameters": [], "output_shape": [[86, 326, 768]], "num_parameters": []}, {"name": "cxrmixer.14", "id": 139676296784096, "class_name": "Reduce('b n c -> b c', 'mean')", "parameters": [], "output_shape": [[86, 768]], "num_parameters": []}, {"name": "cxrmixer.15", "id": 139676296784240, "class_name": "Linear(in_features=768, out_features=2, bias=True)", "parameters": [], "output_shape": [[86, 2]], "num_parameters": []}, {"name": "cxrmixer.0", "id": 139676789728496, "class_name": "Linear(in_features=768, out_features=768, bias=True)", "parameters": [], "output_shape": [[86, 326, 768]], "num_parameters": []}, {"name": "cxrmixer.1.0", "id": 139676789728784, "class_name": "PreNormResidual(\n  (fn): Sequential(\n    (0): Conv1d(326, 1304, kernel_size=(1,), stride=(1,))\n    (1): GELU()\n    (2): Dropout(p=0.0, inplace=False)\n    (3): Conv1d(1304, 326, kernel_size=(1,), stride=(1,))\n    (4): Dropout(p=0.0, inplace=False)\n  )\n  (norm): LayerNorm((768,), eps=1e-05, elementwise_affine=True)\n)", "parameters": [], "output_shape": [[86, 326, 768]], "num_parameters": []}, {"name": "cxrmixer.1.1", "id": 139676789729936, "class_name": "PreNormResidual(\n  (fn): Sequential(\n    (0): Linear(in_features=768, out_features=3072, bias=True)\n    (1): GELU()\n    (2): Dropout(p=0.0, inplace=False)\n    (3): Linear(in_features=3072, out_features=768, bias=True)\n    (4): Dropout(p=0.0, inplace=False)\n  )\n  (norm): LayerNorm((768,), eps=1e-05, elementwise_affine=True)\n)", "parameters": [], "output_shape": [[86, 326, 768]], "num_parameters": []}, {"name": "cxrmixer.2.0", "id": 139676789731232, "class_name": "PreNormResidual(\n  (fn): Sequential(\n    (0): Conv1d(326, 1304, kernel_size=(1,), stride=(1,))\n    (1): GELU()\n    (2): Dropout(p=0.0, inplace=False)\n    (3): Conv1d(1304, 326, kernel_size=(1,), stride=(1,))\n    (4): Dropout(p=0.0, inplace=False)\n  )\n  (norm): LayerNorm((768,), eps=1e-05, elementwise_affine=True)\n)", "parameters": [], "output_shape": [[86, 326, 768]], "num_parameters": []}, {"name": "cxrmixer.2.1", "id": 139676789441392, "class_name": "PreNormResidual(\n  (fn): Sequential(\n    (0): Linear(in_features=768, out_features=3072, bias=True)\n    (1): GELU()\n    (2): Dropout(p=0.0, inplace=False)\n    (3): Linear(in_features=3072, out_features=768, bias=True)\n    (4): Dropout(p=0.0, inplace=False)\n  )\n  (norm): LayerNorm((768,), eps=1e-05, elementwise_affine=True)\n)", "parameters": [], "output_shape": [[86, 326, 768]], "num_parameters": []}, {"name": "cxrmixer.3.0", "id": 139676789442688, "class_name": "PreNormResidual(\n  (fn): Sequential(\n    (0): Conv1d(326, 1304, kernel_size=(1,), stride=(1,))\n    (1): GELU()\n    (2): Dropout(p=0.0, inplace=False)\n    (3): Conv1d(1304, 326, kernel_size=(1,), stride=(1,))\n    (4): Dropout(p=0.0, inplace=False)\n  )\n  (norm): LayerNorm((768,), eps=1e-05, elementwise_affine=True)\n)", "parameters": [], "output_shape": [[86, 326, 768]], "num_parameters": []}, {"name": "cxrmixer.3.1", "id": 139676789443840, "class_name": "PreNormResidual(\n  (fn): Sequential(\n    (0): Linear(in_features=768, out_features=3072, bias=True)\n    (1): GELU()\n    (2): Dropout(p=0.0, inplace=False)\n    (3): Linear(in_features=3072, out_features=768, bias=True)\n    (4): Dropout(p=0.0, inplace=False)\n  )\n  (norm): LayerNorm((768,), eps=1e-05, elementwise_affine=True)\n)", "parameters": [], "output_shape": [[86, 326, 768]], "num_parameters": []}, {"name": "cxrmixer.4.0", "id": 139676297232976, "class_name": "PreNormResidual(\n  (fn): Sequential(\n    (0): Conv1d(326, 1304, kernel_size=(1,), stride=(1,))\n    (1): GELU()\n    (2): Dropout(p=0.0, inplace=False)\n    (3): Conv1d(1304, 326, kernel_size=(1,), stride=(1,))\n    (4): Dropout(p=0.0, inplace=False)\n  )\n  (norm): LayerNorm((768,), eps=1e-05, elementwise_affine=True)\n)", "parameters": [], "output_shape": [[86, 326, 768]], "num_parameters": []}, {"name": "cxrmixer.4.1", "id": 139676297234128, "class_name": "PreNormResidual(\n  (fn): Sequential(\n    (0): Linear(in_features=768, out_features=3072, bias=True)\n    (1): GELU()\n    (2): Dropout(p=0.0, inplace=False)\n    (3): Linear(in_features=3072, out_features=768, bias=True)\n    (4): Dropout(p=0.0, inplace=False)\n  )\n  (norm): LayerNorm((768,), eps=1e-05, elementwise_affine=True)\n)", "parameters": [], "output_shape": [[86, 326, 768]], "num_parameters": []}, {"name": "cxrmixer.5.0", "id": 139676297235424, "class_name": "PreNormResidual(\n  (fn): Sequential(\n    (0): Conv1d(326, 1304, kernel_size=(1,), stride=(1,))\n    (1): GELU()\n    (2): Dropout(p=0.0, inplace=False)\n    (3): Conv1d(1304, 326, kernel_size=(1,), stride=(1,))\n    (4): Dropout(p=0.0, inplace=False)\n  )\n  (norm): LayerNorm((768,), eps=1e-05, elementwise_affine=True)\n)", "parameters": [], "output_shape": [[86, 326, 768]], "num_parameters": []}, {"name": "cxrmixer.5.1", "id": 139676297347232, "class_name": "PreNormResidual(\n  (fn): Sequential(\n    (0): Linear(in_features=768, out_features=3072, bias=True)\n    (1): GELU()\n    (2): Dropout(p=0.0, inplace=False)\n    (3): Linear(in_features=3072, out_features=768, bias=True)\n    (4): Dropout(p=0.0, inplace=False)\n  )\n  (norm): LayerNorm((768,), eps=1e-05, elementwise_affine=True)\n)", "parameters": [], "output_shape": [[86, 326, 768]], "num_parameters": []}, {"name": "cxrmixer.6.0", "id": 139676297348528, "class_name": "PreNormResidual(\n  (fn): Sequential(\n    (0): Conv1d(326, 1304, kernel_size=(1,), stride=(1,))\n    (1): GELU()\n    (2): Dropout(p=0.0, inplace=False)\n    (3): Conv1d(1304, 326, kernel_size=(1,), stride=(1,))\n    (4): Dropout(p=0.0, inplace=False)\n  )\n  (norm): LayerNorm((768,), eps=1e-05, elementwise_affine=True)\n)", "parameters": [], "output_shape": [[86, 326, 768]], "num_parameters": []}, {"name": "cxrmixer.6.1", "id": 139676297349680, "class_name": "PreNormResidual(\n  (fn): Sequential(\n    (0): Linear(in_features=768, out_features=3072, bias=True)\n    (1): GELU()\n    (2): Dropout(p=0.0, inplace=False)\n    (3): Linear(in_features=3072, out_features=768, bias=True)\n    (4): Dropout(p=0.0, inplace=False)\n  )\n  (norm): LayerNorm((768,), eps=1e-05, elementwise_affine=True)\n)", "parameters": [], "output_shape": [[86, 326, 768]], "num_parameters": []}, {"name": "cxrmixer.7.0", "id": 139676297350976, "class_name": "PreNormResidual(\n  (fn): Sequential(\n    (0): Conv1d(326, 1304, kernel_size=(1,), stride=(1,))\n    (1): GELU()\n    (2): Dropout(p=0.0, inplace=False)\n    (3): Conv1d(1304, 326, kernel_size=(1,), stride=(1,))\n    (4): Dropout(p=0.0, inplace=False)\n  )\n  (norm): LayerNorm((768,), eps=1e-05, elementwise_affine=True)\n)", "parameters": [], "output_shape": [[86, 326, 768]], "num_parameters": []}, {"name": "cxrmixer.7.1", "id": 139676296942592, "class_name": "PreNormResidual(\n  (fn): Sequential(\n    (0): Linear(in_features=768, out_features=3072, bias=True)\n    (1): GELU()\n    (2): Dropout(p=0.0, inplace=False)\n    (3): Linear(in_features=3072, out_features=768, bias=True)\n    (4): Dropout(p=0.0, inplace=False)\n  )\n  (norm): LayerNorm((768,), eps=1e-05, elementwise_affine=True)\n)", "parameters": [], "output_shape": [[86, 326, 768]], "num_parameters": []}, {"name": "cxrmixer.8.0", "id": 139676296943888, "class_name": "PreNormResidual(\n  (fn): Sequential(\n    (0): Conv1d(326, 1304, kernel_size=(1,), stride=(1,))\n    (1): GELU()\n    (2): Dropout(p=0.0, inplace=False)\n    (3): Conv1d(1304, 326, kernel_size=(1,), stride=(1,))\n    (4): Dropout(p=0.0, inplace=False)\n  )\n  (norm): LayerNorm((768,), eps=1e-05, elementwise_affine=True)\n)", "parameters": [], "output_shape": [[86, 326, 768]], "num_parameters": []}, {"name": "cxrmixer.8.1", "id": 139676296945040, "class_name": "PreNormResidual(\n  (fn): Sequential(\n    (0): Linear(in_features=768, out_features=3072, bias=True)\n    (1): GELU()\n    (2): Dropout(p=0.0, inplace=False)\n    (3): Linear(in_features=3072, out_features=768, bias=True)\n    (4): Dropout(p=0.0, inplace=False)\n  )\n  (norm): LayerNorm((768,), eps=1e-05, elementwise_affine=True)\n)", "parameters": [], "output_shape": [[86, 326, 768]], "num_parameters": []}, {"name": "cxrmixer.9.0", "id": 139676297061088, "class_name": "PreNormResidual(\n  (fn): Sequential(\n    (0): Conv1d(326, 1304, kernel_size=(1,), stride=(1,))\n    (1): GELU()\n    (2): Dropout(p=0.0, inplace=False)\n    (3): Conv1d(1304, 326, kernel_size=(1,), stride=(1,))\n    (4): Dropout(p=0.0, inplace=False)\n  )\n  (norm): LayerNorm((768,), eps=1e-05, elementwise_affine=True)\n)", "parameters": [], "output_shape": [[86, 326, 768]], "num_parameters": []}, {"name": "cxrmixer.9.1", "id": 139676297062240, "class_name": "PreNormResidual(\n  (fn): Sequential(\n    (0): Linear(in_features=768, out_features=3072, bias=True)\n    (1): GELU()\n    (2): Dropout(p=0.0, inplace=False)\n    (3): Linear(in_features=3072, out_features=768, bias=True)\n    (4): Dropout(p=0.0, inplace=False)\n  )\n  (norm): LayerNorm((768,), eps=1e-05, elementwise_affine=True)\n)", "parameters": [], "output_shape": [[86, 326, 768]], "num_parameters": []}, {"name": "cxrmixer.10.0", "id": 139676297063536, "class_name": "PreNormResidual(\n  (fn): Sequential(\n    (0): Conv1d(326, 1304, kernel_size=(1,), stride=(1,))\n    (1): GELU()\n    (2): Dropout(p=0.0, inplace=False)\n    (3): Conv1d(1304, 326, kernel_size=(1,), stride=(1,))\n    (4): Dropout(p=0.0, inplace=False)\n  )\n  (norm): LayerNorm((768,), eps=1e-05, elementwise_affine=True)\n)", "parameters": [], "output_shape": [[86, 326, 768]], "num_parameters": []}, {"name": "cxrmixer.10.1", "id": 139676297179440, "class_name": "PreNormResidual(\n  (fn): Sequential(\n    (0): Linear(in_features=768, out_features=3072, bias=True)\n    (1): GELU()\n    (2): Dropout(p=0.0, inplace=False)\n    (3): Linear(in_features=3072, out_features=768, bias=True)\n    (4): Dropout(p=0.0, inplace=False)\n  )\n  (norm): LayerNorm((768,), eps=1e-05, elementwise_affine=True)\n)", "parameters": [], "output_shape": [[86, 326, 768]], "num_parameters": []}, {"name": "cxrmixer.11.0", "id": 139676297180736, "class_name": "PreNormResidual(\n  (fn): Sequential(\n    (0): Conv1d(326, 1304, kernel_size=(1,), stride=(1,))\n    (1): GELU()\n    (2): Dropout(p=0.0, inplace=False)\n    (3): Conv1d(1304, 326, kernel_size=(1,), stride=(1,))\n    (4): Dropout(p=0.0, inplace=False)\n  )\n  (norm): LayerNorm((768,), eps=1e-05, elementwise_affine=True)\n)", "parameters": [], "output_shape": [[86, 326, 768]], "num_parameters": []}, {"name": "cxrmixer.11.1", "id": 139676297181888, "class_name": "PreNormResidual(\n  (fn): Sequential(\n    (0): Linear(in_features=768, out_features=3072, bias=True)\n    (1): GELU()\n    (2): Dropout(p=0.0, inplace=False)\n    (3): Linear(in_features=3072, out_features=768, bias=True)\n    (4): Dropout(p=0.0, inplace=False)\n  )\n  (norm): LayerNorm((768,), eps=1e-05, elementwise_affine=True)\n)", "parameters": [], "output_shape": [[86, 326, 768]], "num_parameters": []}, {"name": "cxrmixer.12.0", "id": 139676297183184, "class_name": "PreNormResidual(\n  (fn): Sequential(\n    (0): Conv1d(326, 1304, kernel_size=(1,), stride=(1,))\n    (1): GELU()\n    (2): Dropout(p=0.0, inplace=False)\n    (3): Conv1d(1304, 326, kernel_size=(1,), stride=(1,))\n    (4): Dropout(p=0.0, inplace=False)\n  )\n  (norm): LayerNorm((768,), eps=1e-05, elementwise_affine=True)\n)", "parameters": [], "output_shape": [[86, 326, 768]], "num_parameters": []}, {"name": "cxrmixer.12.1", "id": 139676296782992, "class_name": "PreNormResidual(\n  (fn): Sequential(\n    (0): Linear(in_features=768, out_features=3072, bias=True)\n    (1): GELU()\n    (2): Dropout(p=0.0, inplace=False)\n    (3): Linear(in_features=3072, out_features=768, bias=True)\n    (4): Dropout(p=0.0, inplace=False)\n  )\n  (norm): LayerNorm((768,), eps=1e-05, elementwise_affine=True)\n)", "parameters": [], "output_shape": [[86, 326, 768]], "num_parameters": []}, {"name": "cxrmixer.13", "id": 139676296784144, "class_name": "LayerNorm((768,), eps=1e-05, elementwise_affine=True)", "parameters": [], "output_shape": [[86, 326, 768]], "num_parameters": []}, {"name": "cxrmixer.14", "id": 139676296784288, "class_name": "Reduce('b n c -> b c', 'mean')", "parameters": [], "output_shape": [[86, 768]], "num_parameters": []}, {"name": "cxrmixer.15", "id": 139676296784432, "class_name": "Linear(in_features=768, out_features=2, bias=True)", "parameters": [], "output_shape": [[86, 2]], "num_parameters": []}, {"name": "cxrmixer.0", "id": 139676789728544, "class_name": "Linear(in_features=768, out_features=768, bias=True)", "parameters": [], "output_shape": [[84, 326, 768]], "num_parameters": []}, {"name": "cxrmixer.1.0", "id": 139676789728832, "class_name": "PreNormResidual(\n  (fn): Sequential(\n    (0): Conv1d(326, 1304, kernel_size=(1,), stride=(1,))\n    (1): GELU()\n    (2): Dropout(p=0.0, inplace=False)\n    (3): Conv1d(1304, 326, kernel_size=(1,), stride=(1,))\n    (4): Dropout(p=0.0, inplace=False)\n  )\n  (norm): LayerNorm((768,), eps=1e-05, elementwise_affine=True)\n)", "parameters": [], "output_shape": [[84, 326, 768]], "num_parameters": []}, {"name": "cxrmixer.1.1", "id": 139676789729984, "class_name": "PreNormResidual(\n  (fn): Sequential(\n    (0): Linear(in_features=768, out_features=3072, bias=True)\n    (1): GELU()\n    (2): Dropout(p=0.0, inplace=False)\n    (3): Linear(in_features=3072, out_features=768, bias=True)\n    (4): Dropout(p=0.0, inplace=False)\n  )\n  (norm): LayerNorm((768,), eps=1e-05, elementwise_affine=True)\n)", "parameters": [], "output_shape": [[84, 326, 768]], "num_parameters": []}, {"name": "cxrmixer.2.0", "id": 139676789731280, "class_name": "PreNormResidual(\n  (fn): Sequential(\n    (0): Conv1d(326, 1304, kernel_size=(1,), stride=(1,))\n    (1): GELU()\n    (2): Dropout(p=0.0, inplace=False)\n    (3): Conv1d(1304, 326, kernel_size=(1,), stride=(1,))\n    (4): Dropout(p=0.0, inplace=False)\n  )\n  (norm): LayerNorm((768,), eps=1e-05, elementwise_affine=True)\n)", "parameters": [], "output_shape": [[84, 326, 768]], "num_parameters": []}, {"name": "cxrmixer.2.1", "id": 139676789441440, "class_name": "PreNormResidual(\n  (fn): Sequential(\n    (0): Linear(in_features=768, out_features=3072, bias=True)\n    (1): GELU()\n    (2): Dropout(p=0.0, inplace=False)\n    (3): Linear(in_features=3072, out_features=768, bias=True)\n    (4): Dropout(p=0.0, inplace=False)\n  )\n  (norm): LayerNorm((768,), eps=1e-05, elementwise_affine=True)\n)", "parameters": [], "output_shape": [[84, 326, 768]], "num_parameters": []}, {"name": "cxrmixer.3.0", "id": 139676789442736, "class_name": "PreNormResidual(\n  (fn): Sequential(\n    (0): Conv1d(326, 1304, kernel_size=(1,), stride=(1,))\n    (1): GELU()\n    (2): Dropout(p=0.0, inplace=False)\n    (3): Conv1d(1304, 326, kernel_size=(1,), stride=(1,))\n    (4): Dropout(p=0.0, inplace=False)\n  )\n  (norm): LayerNorm((768,), eps=1e-05, elementwise_affine=True)\n)", "parameters": [], "output_shape": [[84, 326, 768]], "num_parameters": []}, {"name": "cxrmixer.3.1", "id": 139676789443888, "class_name": "PreNormResidual(\n  (fn): Sequential(\n    (0): Linear(in_features=768, out_features=3072, bias=True)\n    (1): GELU()\n    (2): Dropout(p=0.0, inplace=False)\n    (3): Linear(in_features=3072, out_features=768, bias=True)\n    (4): Dropout(p=0.0, inplace=False)\n  )\n  (norm): LayerNorm((768,), eps=1e-05, elementwise_affine=True)\n)", "parameters": [], "output_shape": [[84, 326, 768]], "num_parameters": []}, {"name": "cxrmixer.4.0", "id": 139676297233024, "class_name": "PreNormResidual(\n  (fn): Sequential(\n    (0): Conv1d(326, 1304, kernel_size=(1,), stride=(1,))\n    (1): GELU()\n    (2): Dropout(p=0.0, inplace=False)\n    (3): Conv1d(1304, 326, kernel_size=(1,), stride=(1,))\n    (4): Dropout(p=0.0, inplace=False)\n  )\n  (norm): LayerNorm((768,), eps=1e-05, elementwise_affine=True)\n)", "parameters": [], "output_shape": [[84, 326, 768]], "num_parameters": []}, {"name": "cxrmixer.4.1", "id": 139676297234176, "class_name": "PreNormResidual(\n  (fn): Sequential(\n    (0): Linear(in_features=768, out_features=3072, bias=True)\n    (1): GELU()\n    (2): Dropout(p=0.0, inplace=False)\n    (3): Linear(in_features=3072, out_features=768, bias=True)\n    (4): Dropout(p=0.0, inplace=False)\n  )\n  (norm): LayerNorm((768,), eps=1e-05, elementwise_affine=True)\n)", "parameters": [], "output_shape": [[84, 326, 768]], "num_parameters": []}, {"name": "cxrmixer.5.0", "id": 139676297235472, "class_name": "PreNormResidual(\n  (fn): Sequential(\n    (0): Conv1d(326, 1304, kernel_size=(1,), stride=(1,))\n    (1): GELU()\n    (2): Dropout(p=0.0, inplace=False)\n    (3): Conv1d(1304, 326, kernel_size=(1,), stride=(1,))\n    (4): Dropout(p=0.0, inplace=False)\n  )\n  (norm): LayerNorm((768,), eps=1e-05, elementwise_affine=True)\n)", "parameters": [], "output_shape": [[84, 326, 768]], "num_parameters": []}, {"name": "cxrmixer.5.1", "id": 139676297347280, "class_name": "PreNormResidual(\n  (fn): Sequential(\n    (0): Linear(in_features=768, out_features=3072, bias=True)\n    (1): GELU()\n    (2): Dropout(p=0.0, inplace=False)\n    (3): Linear(in_features=3072, out_features=768, bias=True)\n    (4): Dropout(p=0.0, inplace=False)\n  )\n  (norm): LayerNorm((768,), eps=1e-05, elementwise_affine=True)\n)", "parameters": [], "output_shape": [[84, 326, 768]], "num_parameters": []}, {"name": "cxrmixer.6.0", "id": 139676297348576, "class_name": "PreNormResidual(\n  (fn): Sequential(\n    (0): Conv1d(326, 1304, kernel_size=(1,), stride=(1,))\n    (1): GELU()\n    (2): Dropout(p=0.0, inplace=False)\n    (3): Conv1d(1304, 326, kernel_size=(1,), stride=(1,))\n    (4): Dropout(p=0.0, inplace=False)\n  )\n  (norm): LayerNorm((768,), eps=1e-05, elementwise_affine=True)\n)", "parameters": [], "output_shape": [[84, 326, 768]], "num_parameters": []}, {"name": "cxrmixer.6.1", "id": 139676297349728, "class_name": "PreNormResidual(\n  (fn): Sequential(\n    (0): Linear(in_features=768, out_features=3072, bias=True)\n    (1): GELU()\n    (2): Dropout(p=0.0, inplace=False)\n    (3): Linear(in_features=3072, out_features=768, bias=True)\n    (4): Dropout(p=0.0, inplace=False)\n  )\n  (norm): LayerNorm((768,), eps=1e-05, elementwise_affine=True)\n)", "parameters": [], "output_shape": [[84, 326, 768]], "num_parameters": []}, {"name": "cxrmixer.7.0", "id": 139676297351024, "class_name": "PreNormResidual(\n  (fn): Sequential(\n    (0): Conv1d(326, 1304, kernel_size=(1,), stride=(1,))\n    (1): GELU()\n    (2): Dropout(p=0.0, inplace=False)\n    (3): Conv1d(1304, 326, kernel_size=(1,), stride=(1,))\n    (4): Dropout(p=0.0, inplace=False)\n  )\n  (norm): LayerNorm((768,), eps=1e-05, elementwise_affine=True)\n)", "parameters": [], "output_shape": [[84, 326, 768]], "num_parameters": []}, {"name": "cxrmixer.7.1", "id": 139676296942640, "class_name": "PreNormResidual(\n  (fn): Sequential(\n    (0): Linear(in_features=768, out_features=3072, bias=True)\n    (1): GELU()\n    (2): Dropout(p=0.0, inplace=False)\n    (3): Linear(in_features=3072, out_features=768, bias=True)\n    (4): Dropout(p=0.0, inplace=False)\n  )\n  (norm): LayerNorm((768,), eps=1e-05, elementwise_affine=True)\n)", "parameters": [], "output_shape": [[84, 326, 768]], "num_parameters": []}, {"name": "cxrmixer.8.0", "id": 139676296943936, "class_name": "PreNormResidual(\n  (fn): Sequential(\n    (0): Conv1d(326, 1304, kernel_size=(1,), stride=(1,))\n    (1): GELU()\n    (2): Dropout(p=0.0, inplace=False)\n    (3): Conv1d(1304, 326, kernel_size=(1,), stride=(1,))\n    (4): Dropout(p=0.0, inplace=False)\n  )\n  (norm): LayerNorm((768,), eps=1e-05, elementwise_affine=True)\n)", "parameters": [], "output_shape": [[84, 326, 768]], "num_parameters": []}, {"name": "cxrmixer.8.1", "id": 139676296945088, "class_name": "PreNormResidual(\n  (fn): Sequential(\n    (0): Linear(in_features=768, out_features=3072, bias=True)\n    (1): GELU()\n    (2): Dropout(p=0.0, inplace=False)\n    (3): Linear(in_features=3072, out_features=768, bias=True)\n    (4): Dropout(p=0.0, inplace=False)\n  )\n  (norm): LayerNorm((768,), eps=1e-05, elementwise_affine=True)\n)", "parameters": [], "output_shape": [[84, 326, 768]], "num_parameters": []}, {"name": "cxrmixer.9.0", "id": 139676297061136, "class_name": "PreNormResidual(\n  (fn): Sequential(\n    (0): Conv1d(326, 1304, kernel_size=(1,), stride=(1,))\n    (1): GELU()\n    (2): Dropout(p=0.0, inplace=False)\n    (3): Conv1d(1304, 326, kernel_size=(1,), stride=(1,))\n    (4): Dropout(p=0.0, inplace=False)\n  )\n  (norm): LayerNorm((768,), eps=1e-05, elementwise_affine=True)\n)", "parameters": [], "output_shape": [[84, 326, 768]], "num_parameters": []}, {"name": "cxrmixer.9.1", "id": 139676297062288, "class_name": "PreNormResidual(\n  (fn): Sequential(\n    (0): Linear(in_features=768, out_features=3072, bias=True)\n    (1): GELU()\n    (2): Dropout(p=0.0, inplace=False)\n    (3): Linear(in_features=3072, out_features=768, bias=True)\n    (4): Dropout(p=0.0, inplace=False)\n  )\n  (norm): LayerNorm((768,), eps=1e-05, elementwise_affine=True)\n)", "parameters": [], "output_shape": [[84, 326, 768]], "num_parameters": []}, {"name": "cxrmixer.10.0", "id": 139676297063584, "class_name": "PreNormResidual(\n  (fn): Sequential(\n    (0): Conv1d(326, 1304, kernel_size=(1,), stride=(1,))\n    (1): GELU()\n    (2): Dropout(p=0.0, inplace=False)\n    (3): Conv1d(1304, 326, kernel_size=(1,), stride=(1,))\n    (4): Dropout(p=0.0, inplace=False)\n  )\n  (norm): LayerNorm((768,), eps=1e-05, elementwise_affine=True)\n)", "parameters": [], "output_shape": [[84, 326, 768]], "num_parameters": []}, {"name": "cxrmixer.10.1", "id": 139676297179488, "class_name": "PreNormResidual(\n  (fn): Sequential(\n    (0): Linear(in_features=768, out_features=3072, bias=True)\n    (1): GELU()\n    (2): Dropout(p=0.0, inplace=False)\n    (3): Linear(in_features=3072, out_features=768, bias=True)\n    (4): Dropout(p=0.0, inplace=False)\n  )\n  (norm): LayerNorm((768,), eps=1e-05, elementwise_affine=True)\n)", "parameters": [], "output_shape": [[84, 326, 768]], "num_parameters": []}, {"name": "cxrmixer.11.0", "id": 139676297180784, "class_name": "PreNormResidual(\n  (fn): Sequential(\n    (0): Conv1d(326, 1304, kernel_size=(1,), stride=(1,))\n    (1): GELU()\n    (2): Dropout(p=0.0, inplace=False)\n    (3): Conv1d(1304, 326, kernel_size=(1,), stride=(1,))\n    (4): Dropout(p=0.0, inplace=False)\n  )\n  (norm): LayerNorm((768,), eps=1e-05, elementwise_affine=True)\n)", "parameters": [], "output_shape": [[84, 326, 768]], "num_parameters": []}, {"name": "cxrmixer.11.1", "id": 139676297181936, "class_name": "PreNormResidual(\n  (fn): Sequential(\n    (0): Linear(in_features=768, out_features=3072, bias=True)\n    (1): GELU()\n    (2): Dropout(p=0.0, inplace=False)\n    (3): Linear(in_features=3072, out_features=768, bias=True)\n    (4): Dropout(p=0.0, inplace=False)\n  )\n  (norm): LayerNorm((768,), eps=1e-05, elementwise_affine=True)\n)", "parameters": [], "output_shape": [[84, 326, 768]], "num_parameters": []}, {"name": "cxrmixer.12.0", "id": 139676296781888, "class_name": "PreNormResidual(\n  (fn): Sequential(\n    (0): Conv1d(326, 1304, kernel_size=(1,), stride=(1,))\n    (1): GELU()\n    (2): Dropout(p=0.0, inplace=False)\n    (3): Conv1d(1304, 326, kernel_size=(1,), stride=(1,))\n    (4): Dropout(p=0.0, inplace=False)\n  )\n  (norm): LayerNorm((768,), eps=1e-05, elementwise_affine=True)\n)", "parameters": [], "output_shape": [[84, 326, 768]], "num_parameters": []}, {"name": "cxrmixer.12.1", "id": 139676296783040, "class_name": "PreNormResidual(\n  (fn): Sequential(\n    (0): Linear(in_features=768, out_features=3072, bias=True)\n    (1): GELU()\n    (2): Dropout(p=0.0, inplace=False)\n    (3): Linear(in_features=3072, out_features=768, bias=True)\n    (4): Dropout(p=0.0, inplace=False)\n  )\n  (norm): LayerNorm((768,), eps=1e-05, elementwise_affine=True)\n)", "parameters": [], "output_shape": [[84, 326, 768]], "num_parameters": []}, {"name": "cxrmixer.13", "id": 139676296784192, "class_name": "LayerNorm((768,), eps=1e-05, elementwise_affine=True)", "parameters": [], "output_shape": [[84, 326, 768]], "num_parameters": []}, {"name": "cxrmixer.14", "id": 139676296784336, "class_name": "Reduce('b n c -> b c'
…
